model_compressed.npz (npz, 800552 bytes, 2 tensors)

coef f8 [5, 20000]
000000 11 14 b6 53 d3 ca f7 3f 7e a8 bc 89 54 57 e8 bf
       1.4870179433794457 -0.7606604280638434
000010 86 89 e2 ca 71 eb f7 3f 3f ab 88 29 f4 a3 c0 bf
       1.4949815678779443 -0.1300034716417375
000020 ec f7 91 00 3a fb a0 bf 87 2d 96 57 54 c8 b4 3f
       -0.033166706628421 0.08118178499551308
000030 7a 49 55 ac f1 fa a3 bf 01 00 1c 14 0e 72 a3 3f
       -0.039023926054727334 0.0379795455501153
000040 38 f8 be e7 da 1a e1 3f cd b5 c1 73 f1 9f b7 bf
       0.5345282102860045 -0.09228428913203075
000050 7f ed 83 15 ef b7 b0 bf 05 02 0c d7 2a 2b f9 bf
       -0.0653066089179699 -1.573038902308441
000060 be 91 05 36 61 80 e4 bf 86 46 4e 73 aa 9e c3 bf
       -0.6406713538277058 -0.15327959661640395
000070 7c ae c6 ac a2 85 a8 3f 54 9d 28 53 40 76 b7 bf
       0.04789455756266833 -0.09164812116852278
000080 6c 14 45 ef e5 e3 bb bf 7b 0f 09 a0 e1 13 05 c0
       -0.10894620029019259 -2.6347076895489727
000090 6e dd 80 f5 ff d1 c8 3f e5 d2 0d 6b d3 11 b9 bf
       0.19390868651837984 -0.09792825091956166
0000a0 8d 7c ec 78 d2 6c d8 3f c2 79 49 f6 a4 b0 d0 3f
       0.38164197739565325 0.26078151751962875
0000b0 5e b8 8f 31 a8 e3 c1 3f a3 c9 3e b6 1b 7e ee 3f
       0.1397600404738481 0.9528940734365289
0000c0 4a 05 c0 83 36 2a cc 3f b1 c2 cc 33 7b 3d e0 bf
       0.22003823693379793 -0.5075050365176904
0000d0 73 31 86 05 b9 ff 94 bf 26 76 c7 86 1d 21 e0 3f
       -0.020506754839105534 0.5040423996358114
0000e0 2e 69 8c 55 bc c5 d8 3f 9b f7 0f 3c e8 78 00 40
       0.38706882814735166 2.0590367023823553
0000f0 78 dc 36 60 c6 5f e3 bf 6d 8b 4b 62 da 9d d3 3f
       -0.6054412726579264 0.3065095863259362
000100 dd 64 bc e0 2d 21 d1 3f 14 2a 50 ce 3e 3e 06 c0
       0.26765009829393965 -2.7803932302679275
000110 64 92 eb b8 99 8d de 3f 06 b5 b5 10 d9 0a c0 bf
       0.4773926072942116 -0.12533105197818645
000120 c5 f1 95 98 24 8b b1 bf c2 5d 40 6c 73 c6 eb 3f
       -0.0685294029735309 0.8679749597821955
000130 f5 0f 71 35 fd 92 d7 3f 03 f0 71 47 d5 24 ca bf
       0.3683465024844275 -0.2042490576603769
000140 44 95 49 b5 ea 78 f5 bf 89 2f d3 2e 35 a0 d2 bf
       -1.3420207101383577 -0.29102830479381986
000150 37 24 a8 e3 16 b7 eb bf b4 cc fb cc 50 a0 c3 3f
       -0.8660997816488195 0.15332994469608752
000160 c3 2b da 99 97 23 e7 3f 3f 25 7d 26 c7 72 cb bf
       0.723094749920499 -0.21444024447763785
000170 c5 e6 51 22 92 98 00 40 35 72 3d 41 3c 06 a7 3f
       2.0744974786037766 0.04496944710146914
000180 b5 0c e1 84 38 39 c9 bf 9d 7d c2 2c da f2 d6 bf
       -0.19705873954999267 -0.3585725247484904
000190 1f c6 e3 3e 1e b0 d8 bf 48 72 54 7e f3 fe c8 bf
       -0.38574939862800933 -0.19528049152804017
0001a0 d6 48 5f dd b4 83 14 40 97 dc fd 1a da 96 f8 3f
       5.128619631710725 1.536829095302698
0001b0 a4 e8 ab b3 22 9a 7e bf c8 f5 54 75 e6 ef b3 bf
       -0.007471213869161417 -0.07787933697269189
0001c0 9e 45 66 3a 7f e9 d6 3f ae 98 6e 1f e6 25 d8 3f
       0.3580015249545684 0.37731316632779055
0001d0 b6 55 c5 71 51 f0 d4 bf 47 d0 c5 72 26 f6 09 40
       -0.327167855362258 3.245190521871368
0001e0 1c a4 b4 34 b1 60 e3 3f 9d 54 5f d5 35 34 c1 bf
       0.6055532483488864 -0.1344058315141056
0001f0 4a b5 ab 9f fc 32 d3 bf 11 e8 3f 0b 4e 2e e6 3f
       -0.2999869879993936 0.6931524486274175
000200 3e 8f 3f 3e 21 a9 dd bf 34 00 24 28 80 32 01 40
       -0.46344786719258824 2.149658502195985
000210 d3 1d c7 23 19 c1 f0 3f 12 6c 8b 0e 51 0f 03 40
       1.047143115765597 2.3824788223551048
000220 69 ef a2 70 1b 1b 04 40 ec a4 3e 60 cc bd 07 c0
       2.513235931370151 -2.967674972450018
000230 47 da ee 53 6e 0c c0 3f 9c 47 c9 d6 ca 63 e5 3f
       0.12537936304370786 0.6684316821140217
000240 db 06 5d 39 ad 4d b6 3f 2e 2c b9 b9 02 e4 f6 3f
       0.0871227517173127 1.4306666617219537
000250 03 27 b9 20 a3 cc f0 bf 0b 6b 17 70 a0 85 f6 bf
       -1.0499602583171856 -1.4076237085889172
000260 ba ca 92 56 74 de 02 c0 1a db 48 19 29 24 cb bf
       -2.358620334963544 -0.2120410321674278
000270 dc 66 50 01 a5 5f 01 40 72 8f 54 50 87 b4 c4 bf
       2.171701441064995 -0.1617592947233067
000280 99 02 41 7d 6b 5c b5 3f 1a fc b7 26 04 b5 f6 bf
       0.08344146545369781 -1.4191934120606278
000290 2c 7f 23 62 5b e8 ed 3f 12 33 75 98 00 cf e2 3f
       0.9346138874788941 0.5877688386623012
0002a0 8e 9f 75 28 77 e3 d5 bf 06 10 ef d6 82 42 d8 bf
       -0.342008389960477 -0.3790595149005188
0002b0 71 54 71 de ba 01 c1 bf 48 78 6e 62 6f 2a f2 3f
       -0.13286529408893302 1.1353601307851182
0002c0 c0 42 ef 04 e8 48 fe 3f 7b a8 d4 4c 57 19 dc bf
       1.8927993958242695 -0.43904669287679327
0002d0 1c ba 85 ff 41 bb ea bf 56 36 32 05 be 00 b1 bf
       -0.8353586188002882 -0.06641757609232832
0002e0 2a f2 b0 50 16 ce ab bf 7e 0b 60 f1 87 ed cd bf
       -0.05430669531822148 -0.23381137166878924
0002f0 78 2d ef 85 3e d0 bc bf 58 d1 34 d0 e6 91 e4 bf
       -0.11255255479698245 -0.6428102556733775
000300 ca 6a 30 ff 6d 67 e2 3f a0 e6 46 ee c5 8d d5 3f
       0.5751256927645383 0.33677814740404166
000310 b7 13 8f 08 47 c6 c9 3f ee 9b 52 29 ad d2 06 c0
       0.20136344831385397 -2.8528693416915223
000320 b9 48 1b 88 69 95 e8 bf 7f 1b 16 ea 51 b3 c5 3f
       -0.7682387979823694 0.16953491144178298
000330 e7 a0 62 81 71 7f f9 3f b2 88 8f 20 38 5a 94 bf
       1.5936141065704363 -0.0198754091142141
000340 c1 7c e5 f4 e1 9a da 3f 60 3c 30 8d dc 16 e2 bf
       0.41570328632037606 -0.5652907140337327
000350 86 c8 ae cd 5b 08 eb bf 34 f0 0d 40 d6 2a c9 3f
       -0.8447703377953679 0.19661977889688986
000360 d5 af fd 65 55 87 10 c0 0a fa 4a ab 18 bc e7 3f
       -4.1321617065513765 0.7417109818996448
000370 ca 71 aa 10 89 61 e1 3f d9 90 3a 0e 9d a5 ff 3f
       0.5431561780456431 1.9779329829989847
000380 c4 7e 8e a6 7a 60 90 3f 64 33 2c 58 59 2c d1 bf
       0.015993038574037013 -0.268331848245728
000390 50 ff d4 39 f0 e7 00 40 2c e8 42 7f 91 b4 f3 bf
       2.1132511633040068 -1.2315840693613707
0003a0 c8 b0 1e f9 05 5f e1 3f 96 ca 2b d3 d5 37 e8 bf
       0.5428495278952363 -0.7568158268389478
0003b0 d3 a1 16 4b db 84 08 40 a8 2a 87 36 ea 9f d9 bf
       3.0648713938028123 -0.4003854305744121
0003c0 33 86 ca f4 7f f9 a4 bf 49 4f e4 4d df 0f c1 bf
       -0.040966032630660364 -0.13329688361465689
0003d0 d2 ea b1 78 c1 d3 af 3f 17 85 2e 17 99 69 db 3f
       0.0621624431450606 0.4283201910385101
0003e0 9c b0 89 24 52 cc e5 3f 86 e2 97 80 33 95 dc bf
       0.6811915124540238 -0.4466065173906276
0003f0 e8 12 9f 00 00 14 d4 3f 24 c9 38 87 e9 93 ed 3f
       0.3137207037037073 0.9243056908656269
000400 24 e4 57 fd 07 1a dc 3f 62 d3 ee 78 a8 c6 e1 bf
       0.4390888189369113 -0.5555002557726818
000410 cd 88 9c 65 c0 dc ca bf 3d 9f 7c 79 2d 9a 9a 3f
       -0.20986180268761814 0.02597876600262271
000420 6e b1 12 d8 7f 87 ef bf d5 23 82 4b 20 28 da bf
       -0.9852904529739541 -0.4086991059671708
000430 42 98 75 e7 be 14 c6 bf 6f 9a ba 96 bb 31 e4 3f
       -0.17250810910917563 0.6310708946155738
000440 a0 32 b6 54 c6 6a fd bf b2 f7 27 b7 9a c2 b1 3f
       -1.8385680493403598 0.06937567683777848
000450 9b 43 12 da bf 6c b4 3f c6 9e b1 f1 90 04 f1 bf
       0.0797843844795935 -1.0636147919812386
000460 e3 d8 d2 42 db 49 d0 3f b2 9c 0e 61 90 3f bb 3f
       0.25450784230942086 0.10643865937764721
000470 c2 ab 29 fb a9 7c a8 bf ae ca e2 8b 3e 14 a8 bf
       -0.047826110753554044 -0.047029451919475704
000480 75 a7 14 ae 97 30 bc bf ef e7 7c 31 5f d0 df bf
       -0.1101164627076779 -0.49709300835422615
000490 95 d6 b6 4a 7a 7a c5 bf 20 3d 38 50 7e cd 10 c0
       -0.16780022285609122 -4.2006771597218915
0004a0 c5 db f9 55 25 e4 dc 3f 44 f3 b7 43 36 d6 06 40
       0.45142491718382544 2.854595688868729
0004b0 2d d0 40 e4 88 05 c8 bf ff ab 96 47 b7 13 03 c0
       -0.1876689066426719 -2.3846269219261553
0004c0 d5 8c d8 67 b1 be f1 3f 33 ed 40 ab ad 8a f4 3f
       1.1090559059601237 1.283857029876185
0004d0 83 88 1b 58 40 a0 e1 bf ad 04 55 03 4d 74 00 c0
       -0.5508119316912289 -2.0567875156708255
0004e0 73 ca c7 d9 b8 3d 0a c0 ac 5d 73 92 72 f4 d9 bf
       -3.280137730989105 -0.4055448942358122
0004f0 4c 6b 7c de 5b 09 d5 3f e6 7f c0 02 d0 c6 f3 bf
       0.32869621970319396 -1.236038218259631
000500 26 41 39 26 30 78 e0 3f 8a fa 6d 93 e0 5d fe 3f
       0.5146713968806906 1.8979192503899491
000510 68 bc c7 01 81 07 b2 3f ae f6 e5 f3 c7 0d 0b c0
       0.07042700093710297 -3.381729035811836
000520 65 84 2d 56 c4 40 e7 3f ff 0a 58 fc 0a 9e f5 3f
       0.7266561206016716 1.3510846955475129
000530 05 d3 8c e3 f4 9b ff 3f 29 07 af 12 d2 76 03 c0
       1.975575341098364 -2.4330178699173257
000540 53 09 0b 48 1c da eb bf 8c ff 74 98 e4 26 ef bf
       -0.870374813756181 -0.9734976747204072
000550 10 e2 27 10 46 43 02 c0 fc e3 72 b1 a7 9d ba bf
       -2.282848478524336 -0.10396812517400628
000560 6f 40 e8 1a 5a da 01 40 6a 65 50 e7 c1 37 f6 bf
       2.2316171743514626 -1.3886126552300433
000570 d2 65 6d d7 0e 16 e1 bf 1a d5 6d 9a b8 7a e6 3f
       -0.5339426238598952 0.7024806038085984
000580 ac f8 1b 9a 81 a1 f9 bf 14 35 39 af 00 3d 05 c0
       -1.6019302387135594 -2.654786461766557
000590 93 e5 2b e2 85 19 bc 3f 8b d8 a9 95 2d 22 f8 3f
       0.10976444980396698 1.5083442541340755
0005a0 9c 45 c8 32 c6 6a fb 3f 1b 23 60 40 4d 7f c4 bf
       1.7135679229435032 -0.16013494151436522
0005b0 35 a8 e1 4e 33 1c ec bf 7d a7 c2 b1 2a db fc bf
       -0.8784424343732612 -1.803507513405264
0005c0 65 b4 b1 c3 57 2c aa 3f 3a e9 38 68 8c d3 02 c0
       0.05111955894322121 -2.353295149075305
0005d0 78 db 1a b0 d9 4c e2 bf 08 6c c2 37 a2 f5 eb bf
       -0.5718811454342889 -0.8737345780422183
0005e0 f2 44 e5 c1 47 61 03 c0 df 88 85 0f be b5 e8 bf
       -2.4225001476376002 -0.7721853545338283
0005f0 be 60 12 e8 41 b6 e1 3f 9b ef e9 75 6d c9 dd 3f
       0.5534982235576746 0.46541916384716736
000600 dd 0d 47 4e 92 21 b5 bf a7 fc 42 36 b0 32 d1 bf
       -0.08254351054261329 -0.2687187700175379
000610 38 f9 76 2d d0 d9 e2 3f 85 dd 55 39 bf 72 f0 bf
       0.5890885246260842 -1.0280143966354853
000620 f8 d0 fe 65 b0 4a b0 bf d7 2a 81 7a 4d a3 b4 bf
       -0.06363966455575454 -0.08061680069765075
000630 16 f3 e9 6f 84 0d 83 bf 39 5e c3 a9 c8 d2 ea 3f
       -0.009303126015987522 0.8382304492651605
000640 c4 0d 11 e6 5f 2d b3 bf 37 02 bf 49 3b e9 12 c0
       -0.07491111151562452 -4.727765228541606
000650 45 3a b7 02 05 97 cd 3f 1c 8c 61 03 f9 33 c3 bf
       0.23117125160793442 -0.15002358117189452
000660 a4 94 48 cb a7 5e bd bf 1f eb da ed 55 2c e4 3f
       -0.11472557747818485 0.6304120679481889
000670 d8 7e ad eb ab 68 01 40 17 b0 25 e4 65 d2 e8 3f
       2.1761091625520343 0.7756833511352877
000680 a4 27 e6 0e 45 19 ee 3f ca 6b dc b4 7c b5 d9 3f
       0.940584687328045 0.40170209562500914
000690 23 90 71 01 99 5c fa 3f 8c 71 c5 c5 94 27 03 40
       1.64760685504826 2.3943267298583972
0006a0 3e 92 a6 75 3e 73 fa bf 12 5f 7b 81 7f 38 05 40
       -1.653135737965513 2.6525869479918436
0006b0 c0 3a b2 6d a7 86 e0 bf a4 ce 0b d0 e5 d4 00 40
       -0.5164372580055314 2.1039539579013127
0006c0 ff 75 21 e7 db ab f3 3f e7 70 97 f5 15 d0 d0 3f
       1.2294577625792724 0.26270054801513115
0006d0 99 9c 24 e8 ee 83 9c 3f 58 30 72 8a 42 be da bf
       0.02784703533066288 -0.4178625442516526
0006e0 97 1f 90 62 13 44 e8 bf 70 6a 57 64 ec 54 8a bf
       -0.7583100247438662 -0.012857291042498192
0006f0 8d f4 e8 cd 83 96 01 40 00 0d 1a 4d a7 9f ce bf
       2.1984935843198117 -0.2392472387765352
000700 9e bc c2 eb 92 b9 e4 bf 4b 2c 3b a8 7e a6 ec bf
       -0.6476530651761043 -0.895324066711859
000710 13 85 8e d8 97 cd c3 bf 6f 5d 4b 40 a6 35 f2 bf
       -0.15471170496042727 -1.1380980025768073
000720 d2 b0 e3 f7 e9 45 d9 3f df 16 de 66 73 9a bc bf
       0.39489220817519055 -0.1117317320004889
000730 8f 3d 8a 71 ab 53 0a 40 24 e1 ad 06 70 dc df 3f
       3.2908543463051454 0.4978294434763646
000740 11 83 47 1d e7 0c e1 bf 36 b4 b2 8f bd 09 aa bf
       -0.5328250476705724 -0.05085556391836869
000750 c4 77 f8 ba d5 e5 d8 bf 23 5e 68 e8 f3 62 c3 bf
       -0.3890280080685182 -0.15145729873687327
000760 49 f4 2d 6d 4c e8 ee bf 5c 66 94 65 e1 51 f6 3f
       -0.9658567554867058 1.3949903457600135
000770 8e 69 a9 13 05 4f 07 40 7a 1d 9c 57 96 66 da bf
       2.913583901984743 -0.4125114303173728
000780 e2 45 c5 19 d4 23 e1 3f 67 d1 cb a3 37 93 fa 3f
       0.5356235984165176 1.660941734150663
000790 fc cb ea a1 40 5a ff 3f ae 5c 49 a4 d9 58 ee 3f
       1.9595342945947314 0.9483459671709136
0007a0 b8 66 d9 7d a2 61 e6 3f 8d ba bc 5c f2 2e bb bf
       0.6994183023445748 -0.10618510021297763
0007b0 26 53 55 b8 01 59 ef bf 0e 2a 84 f2 7d 19 ae bf
       -0.9796150779971853 -0.05878823838618895
0007c0 8c 7b 25 c1 e3 c1 ec 3f 4a cc 89 18 b3 e8 c4 bf
       0.8986681721106478 -0.1633514280143536
0007d0 88 68 e6 62 ef ca fa bf 38 77 d0 28 a5 74 b7 3f
       -1.6745447028429528 0.09162361380046213
0007e0 b7 b1 93 ab 63 5a c1 3f f2 4b 3e bf 1e 27 df 3f
       0.13557096364764984 0.48676270176036873
0007f0 36 ba d6 f4 d3 d4 e0 3f 8f 00 c7 77 f6 2d e5 3f
       0.5259799749381446 0.6618606891061222

intercept f8 [5, 1]
000000 13 eb c3 75 a1 4d f7 bf a5 36 02 4e b8 44 0c c0
       -1.4564528083998922 -3.533554658358144
000010 59 2b 23 ca 05 21 0a c0 b0 95 6f f7 24 90 19 c0
       -3.2661243240340068 -6.390766016183463
000020 94 60 ab ab 19 62 15 c0
       -5.345801050505674
